accel/data/int8/conv2_weight_int8.npy (npy, 18560 bytes, 1 tensors)

array i1 [64, 32, 3, 3]
000000 f9 f2 fa 10 f7 ed db d9 e1 01 10 f2 d4 de e0 b5
       -7 -14 -6 16 -9 -19 -37 -39 -31 1 16 -14 -44 -34 -32 -75
000010 bc da fa df f9 fd f3 f8 f5 07 25 32 08 f7 ef ec
       -68 -38 -6 -33 -7 -3 -13 -8 -11 7 37 50 8 -9 -17 -20
000020 d0 bc 81 e5 fa e9 cf e9 c5 d8 df c4 cc 2d 14 02
       -48 -68 -127 -27 -6 -23 -49 -23 -59 -40 -33 -60 -52 45 20 2
000030 ee 14 37 17 0a 03 ee ed 03 15 18 f2 02 ef f1 31
       -18 20 55 23 10 3 -18 -19 3 21 24 -14 2 -17 -15 49
000040 f8 d9 d3 dd f5 d9 98 d3 f1 09 d8 00 fc 0c 07 eb
       -8 -39 -45 -35 -11 -39 -104 -45 -15 9 -40 0 -4 12 7 -21
000050 0e 1a ee ce 0b d6 b5 ea cf d1 f7 fe 32 e9 f6 fb
       14 26 -18 -50 11 -42 -75 -22 -49 -47 -9 -2 50 -23 -10 -5
000060 d5 de c6 db db f5 f6 05 14 17 ff f8 02 f3 00 10
       -43 -34 -58 -37 -37 -11 -10 5 20 23 -1 -8 2 -13 0 16
000070 f7 ff f3 eb db df e2 fd ec 0b 0b 12 1c 06 f3 09
       -9 -1 -13 -21 -37 -33 -30 -3 -20 11 11 18 28 6 -13 9
000080 11 eb 0c b0 cc b7 bf ef f3 08 f7 f7 0b fc 06 fb
       17 -21 12 -80 -52 -73 -65 -17 -13 8 -9 -9 11 -4 6 -5
000090 06 fa 07 eb 19 1a e8 dc d2 0d 06 fc dd eb cf e1
       6 -6 7 -21 25 26 -24 -36 -46 13 6 -4 -35 -21 -49 -31
0000a0 da e4 f6 e6 e9 ff fc e0 fe df e7 e7 00 1b ed fc
       -38 -28 -10 -26 -23 -1 -4 -32 -2 -33 -25 -25 0 27 -19 -4
0000b0 19 14 14 01 ef f2 fe 11 07 e6 db cc aa 15 10 f6
       25 20 20 1 -17 -14 -2 17 7 -26 -37 -52 -86 21 16 -10
0000c0 08 f2 ee bb dc c9 0d fc fa 22 0b 15 0e fe 12 2b
       8 -14 -18 -69 -36 -55 13 -4 -6 34 11 21 14 -2 18 43
0000d0 10 01 e0 e6 eb 08 f0 e3 f6 f4 dd 31 f3 db 27 f9
       16 1 -32 -26 -21 8 -16 -29 -10 -12 -35 49 -13 -37 39 -7
0000e0 dd 08 15 fe 05 e9 f2 0f fc 03 f9 ef 08 11 12 21
       -35 8 21 -2 5 -23 -14 15 -4 3 -7 -17 8 17 18 33
0000f0 27 29 14 f0 fc 03 d3 ee f8 ef fb fe e3 fd e4 c3
       39 41 20 -16 -4 3 -45 -18 -8 -17 -5 -2 -29 -3 -28 -61
