accel/data/int8/fc2_weight_int8.npy (npy, 1408 bytes, 1 tensors)

array i1 [10, 128]
00000000: d4e2 170c bf02 d3fe ccf5 98b4 98da fb1e
00000010: 853c 3d03 adc2 b5d4 bb00 0ce8 29ad 1933
00000020: 3096 ff9c 1121 1dbf 2b63 b2fb 20f2 df36
00000030: 21ec 240d e609 13f1 d218 3940 e631 2bee
00000040: cb10 e70e f6b4 b0d3 155e e9b1 1807 f8d4
00000050: 12fc 31ba b6f5 b700 c41f cbd5 5905 cc2c
00000060: e5de 282c e4f5 daef 81ae aae2 0406 c42f
00000070: 2e2c f3d0 168e dfea f224 ec1b 1743 3702
00000080: cdec c6e5 1fd3 4af3 3783 f019 15ea d924
00000090: 032c d5ab 0213 b5d6 9601 4000 ec3b 3ee2
000000a0: d549 ea20 d936 021c dd0c f2ed d4fa 1726
000000b0: 2314 8c38 f7f1 fedc f2f9 3a3d 1198 cfc2
000000c0: b2d8 fb0d 0316 c8fb dddf c039 a8ef f7da
000000d0: 3611 27db f2ad 48eb 3712 bd2c 3f7f 2501
000000e0: f4bf d5eb ffeb f010 05e6 2901 e71b e425
000000f0: d743 ec0e 49e7 30e8 d11d a908 e3c8 a603
-44 -30 23 12 -65 2 -45 -2
-52 -11 -104 -76 -104 -38 -5 30
-123 60 61 3 -83 -62 -75 -44
-69 0 12 -24 41 -83 25 51
48 -106 -1 -100 17 33 29 -65
43 99 -78 -5 32 -14 -33 54
33 -20 36 13 -26 9 19 -15
-46 24 57 64 -26 49 43 -18
-53 16 -25 14 -10 -76 -80 -45
21 94 -23 -79 24 7 -8 -44
18 -4 49 -70 -74 -11 -73 0
-60 31 -53 -43 89 5 -52 44
-27 -34 40 44 -28 -11 -38 -17
-127 -82 -86 -30 4 6 -60 47
46 44 -13 -48 22 -114 -33 -22
-14 36 -20 27 23 67 55 2
-51 -20 -58 -27 31 -45 74 -13
55 -125 -16 25 21 -22 -39 36
3 44 -43 -85 2 19 -75 -42
-106 1 64 0 -20 59 62 -30
-43 73 -22 32 -39 54 2 28
-35 12 -14 -19 -44 -6 23 38
35 20 -116 56 -9 -15 -2 -36
-14 -7 58 61 17 -104 -49 -62
-78 -40 -5 13 3 22 -56 -5
-35 -33 -64 57 -88 -17 -9 -38
54 17 39 -37 -14 -83 72 -21
55 18 -67 44 63 127 37 1
-12 -65 -43 -21 -1 -21 -16 16
5 -26 41 1 -25 27 -28 37
-41 67 -20 14 73 -25 48 -24
-47 29 -87 8 -29 -56 -90 3
