data/int8/conv1_weight_int8.npy (npy, 416 bytes, 1 tensors)

array i1 [32, 1, 3, 3]
86 85 -83 91 -71 -27 -127 33
97 -127 85 -9 71 8 32 -47
77 -7 -30 29 -91 -24 -88 127
-96 -68 -4 -33 -21 -127 91 -66
76 18 -11 62 5 107 -41 -87
28 -94 50 127 69 8 91 49
66 -44 -127 -77 -114 61 58 65
35 -22 127 -123 -35 -105 59 -22
22 -70 98 -50 -90 -54 127 55
127 -77 -91 -83 -73 47 52 104
-25 -53 71 -28 47 -8 99 -127
-62 63 39 -21 35 101 -79 -127
126 -30 -55 -127 -81 66 -26 -90
24 -74 -102 -77 -85 -49 127 7
26 -55 -56 -32 21 -127 -55 -97
-14 -31 -16 -85 -86 -79 -103 -100
127 -58 103 54 -110 83 -39 -53
-106 -90 -25 -9 80 -125 127 -79
-40 45 93 121 120 -127 48 -80
-79 -82 83 -127 29 39 15 -99
80 5 -18 -127 86 -14 -51 116
21 -57 -34 8 75 -28 -40 -14
-79 50 90 -127 9 95 52 -125
111 127 36 -85 -102 24 -46 -99
124 127 -39 -41 -8 -17 82 50
-127 -41 127 75 -41 -122 -115 -119
-70 7 88 53 -103 -78 -15 127
40 29 90 -29 -23 108 -80 -110
-127 53 62 16 -99 -127 -112 61
49 77 95 83 41 -127 -87 -123
44 -68 -26 -113 -41 -96 -79 9
-75 127 -17 -112 -39 -121 -71 -127
00000000: 5655 ad5b b9e5 8121 6181 55f7 4708 20d1
00000010: 4df9 e21d a5e8 a87f a0bc fcdf eb81 5bbe
00000020: 4c12 f53e 056b d7a9 1ca2 327f 4508 5b31
00000030: 42d4 81b3 8e3d 3a41 23ea 7f85 dd97 3bea
00000040: 16ba 62ce a6ca 7f37 7fb3 a5ad b72f 3468
00000050: e7cb 47e4 2ff8 6381 c23f 27eb 2365 b181
00000060: 7ee2 c981 af42 e6a6 18b6 9ab3 abcf 7f07
00000070: 1ac9 c8e0 1581 c99f f2e1 f0ab aab1 999c
00000080: 7fc6 6736 9253 d9cb 96a6 e7f7 5083 7fb1
00000090: d82d 5d79 7881 30b0 b1ae 5381 1d27 0f9d
000000a0: 5005 ee81 56f2 cd74 15c7 de08 4be4 d8f2
000000b0: b132 5a81 095f 3483 6f7f 24ab 9a18 d29d
000000c0: 7c7f d9d7 f8ef 5232 81d7 7f4b d786 8d89
000000d0: ba07 5835 99b2 f17f 281d 5ae3 e96c b092
000000e0: 8135 3e10 9d81 903d 314d 5f53 2981 a985
000000f0: 2cbc e68f d7a0 b109 b57f ef90 d987 b981
